reinforce_cartpole.pth (torch, 5800 bytes, 4 tensors)

fc1.weight f4 [128, 4]
0	0xbcf3a94d	-0.029743815
1	0x3f0cbee3	0.5497877
2	0x3eca8118	0.39551616
3	0x3f042a57	0.51627105
4	0xbecb9713	-0.39763698
5	0xbd5a620a	-0.053316154
6	0xbee017c6	-0.43768138
7	0xbf24468d	-0.6417015
8	0xbeeb09f7	-0.4590604
9	0xbf099cb0	-0.5375471
10	0xbd618717	-0.055060472
11	0xbe92ddf8	-0.28684974
12	0x3e8ad7fd	0.2711791
13	0x3e802619	0.25029066
14	0x3f03eeba	0.5153614
15	0x3f3a440f	0.727601
16	0x3dec336e	0.11533247
17	0x3d9f714e	0.07785283
18	0x3f4ea3a8	0.8071847
19	0x3eb1b583	0.34708795
20	0x3a45ceb3	0.0007545754
21	0x3e772132	0.24133757
22	0xbe7d5714	-0.24740249
23	0xbec116f0	-0.37712812
24	0x3ec57c54	0.38571417
25	0xbeea9244	-0.45814717
26	0x3ea65c92	0.324925
27	0x3f605167	0.8762421
28	0x3ec50cf8	0.38486457
29	0xbf0a336f	-0.5398473
30	0xbe378035	-0.17920001
31	0xbf0a04c9	-0.5391355
32	0x3edf721e	0.43641752
33	0x3f296a65	0.6617797
34	0x3f1cabab	0.61199445
35	0x3ebcdf15	0.36888948
36	0x3dfff453	0.12497773
37	0x3d51587b	0.051109772
38	0x3eeabb15	0.45845857
39	0x3c4663d5	0.012108763
40	0x3e3b7d2e	0.18309471
41	0x3f026412	0.50933945
42	0x3fb4c030	1.4121151
43	0x3e759a1a	0.23984566
44	0xbe0bf9b4	-0.13669473
45	0xbd48296e	-0.048867635
46	0xbf714b71	-0.9425574
47	0xbf478120	-0.77931404
48	0x3bd4a9f0	0.0064899847
49	0x3eca50c0	0.39514732
50	0x3ea35788	0.3190272
51	0x3dccb7e4	0.09996012
52	0x3e800c42	0.25009352
53	0xbeb4a020	-0.35278416
54	0xbe12e302	-0.14344409
55	0x3eac38b1	0.33637002
56	0x3e54f1db	0.20795386
57	0xbea306d7	-0.31841156
58	0x3e73d601	0.23812105
59	0x3cc1cbab	0.023656687
60	0x3ea71afb	0.32637772
61	0xbeebfb06	-0.46089953
62	0x3f034587	0.51277965
63	0xbe8cda27	-0.27510187
64	0xbe44956f	-0.1919763
65	0x3ebeab25	0.37239948
66	0xbd08be4f	-0.033384617
67	0xbce705ce	-0.02820101
68	0x3e1880fc	0.14892954
69	0xbe37f875	-0.17965873
70	0xbdafcb85	-0.0858374
71	0xbed2b9e7	-0.41157457
72	0x3e74ba6c	0.2389924
73	0x3e066967	0.13126145
74	0xbe1e9b3e	-0.15488908
75	0x3dd0ed8f	0.10201561
76	0xbe2665ae	-0.16249725
77	0x3f29c45e	0.6631526
78	0xbe28c6a4	-0.16482025
79	0x3e8f5524	0.27994645
80	0x3e035c44	0.12828165
81	0xbe592f25	-0.2120939
82	0x3ec5b291	0.38612798
83	0xbea84cdc	-0.3287114
84	0x3e470927	0.19437085
85	0x3e816612	0.25273186
86	0xbf562a71	-0.8365851
87	0xbee01664	-0.43767083
88	0x3e292f74	0.16522008
89	0xbe8b2111	-0.27173665
90	0xbf5cb31c	-0.862108
91	0xbf819346	-1.0123069
92	0xbde77ef5	-0.11303512
93	0x3e0168ce	0.12637636
94	0xbea9e2bc	-0.33180797
95	0x3cc36ee9	0.023856597
96	0xbd740d88	-0.059583217
97	0x3e3019ae	0.17197296
98	0xbd97b3f8	-0.07407373
99	0xbe21b8ee	-0.15793201
100	0xbe15f3ee	-0.14643833
101	0xbdc83e81	-0.09777547
102	0x3ef1d77e	0.4723472
103	0xbdb3ec7f	-0.087853424
104	0x3da6b56d	0.08140073
105	0xbeee0dd0	-0.46494913
106	0xbf5f5b25	-0.8724845
107	0xbf77cc00	-0.96795654
108	0xbdf0e7ac	-0.11762938
109	0xbe03fcab	-0.12889354
110	0x3e0b74b3	0.13618736
111	0x3e638522	0.22218755
112	0x3e0f598d	0.13999005
113	0x3c49d0c3	0.012317839
114	0xbf665957	-0.8998007
115	0xbf50b595	-0.8152707
116	0x3f02eee7	0.51145786
117	0x3e0f56d0	0.1399796
118	0x3f21f82b	0.632693
119	0x3f31caff	0.6945037
120	0x3e958100	0.29199982
121	0xbe7b4fe1	-0.2454219
122	0x3eb6c6cc	0.35698545
123	0x3e807887	0.25091955
124	0x3ed96684	0.42461026
125	0x3e19ab80	0.15006828
126	0x3e4e5788	0.20150578
127	0x3ea1516e	0.31507438
128	0xbe6f3445	-0.23359783
129	0xbe2e2d44	-0.17009455
130	0xbf23cae7	-0.6398148
131	0xbf1ea7ae	-0.6197461
132	0xbde0263a	-0.10944791
133	0xbedb1a44	-0.42793477
134	0xbf36284e	-0.7115525
135	0xbf1d7831	-0.6151152
136	0x3e72938d	0.23689099
137	0xbe092ee2	-0.1339679
138	0x3f9216eb	1.1413244
139	0x3eca5612	0.3951879
140	0xbee638e4	-0.4496528
141	0x3ecacd46	0.39609736
142	0x3ef49a99	0.477742
143	0x3e8c644a	0.27420264
144	0x3d3e93f5	0.04652782
145	0x3e030144	0.12793452
146	0xbf93b318	-1.153903
147	0xbf2f7545	-0.68538314
148	0x3c87727e	0.016534086
149	0xbd26f451	-0.040760342
150	0xbe18e542	-0.14931205
151	0xbe572640	-0.21010685
152	0xbd151363	-0.03639544
153	0x3d419d76	0.047269307
154	0x3e15bb80	0.14622307
155	0x3ede498e	0.43415493
156	0x3d67d902	0.05660344
157	0x3e1aafcb	0.15106122
158	0xbeb3a343	-0.35085496
159	0x3d4ef16d	0.05052321
160	0x3da77986	0.08177476
161	0xbec066ce	-0.37578434
162	0x3ee93181	0.4554558
163	0xbc3fe2d5	-0.011711796
164	0x3dd0d566	0.101969525
165	0xbd88dd2b	-0.066828094
166	0x3e1484ac	0.14503735
167	0xbd508864	-0.050911322
168	0x3f18d80d	0.5970467
169	0x3ec00d8a	0.3751033
170	0xbebe6b91	-0.37191442
171	0xbf192088	-0.59815264
172	0x3eb45a1e	0.35225004
173	0x3d014849	0.031563077
174	0x3ef864d1	0.48514417
175	0x3f1dde29	0.61667114
176	0xbeb85e1a	-0.36009294
177	0xbe9f2e0c	-0.31089818
178	0xbf453fb6	-0.7705034
179	0xbf0bcffc	-0.54614234
180	0xbda87486	-0.0822535
181	0xbe3fe1be	-0.18738458
182	0x3f0e84ca	0.5567137
183	0x3eaa53a5	0.3326694
184	0x3e4d837c	0.20069689
185	0xbe89cc99	-0.26913908
186	0xbda7d7fb	-0.08195492
187	0x3c5d019a	0.013489151
188	0xbe0005c3	-0.12502198
189	0x3dc0d75e	0.09416078
190	0x3e55e779	0.20889081
191	0x3ecd4d9d	0.40098277
192	0xbe12b411	-0.14326502
193	0x3d17225f	0.036898013
194	0x3e0f925e	0.14020678
195	0x3da320cc	0.0796524
196	0xbea9a8fc	-0.33136737
197	0xbe588f75	-0.21148475
198	0xbf77234a	-0.9653822
199	0xbeef995f	-0.467967
200	0x3dc1be86	0.094601676
201	0x3e6b3895	0.22970803
202	0xbf19e208	-0.6011052
203	0x3e8fc435	0.28079382
204	0x3e977fc7	0.29589674
205	0xbef34dd6	-0.47520322
206	0xbe8b6e79	-0.2723272
207	0xbf4d055b	-0.80086297
208	0xbd8b5a72	-0.068043604
209	0xbd7ee824	-0.062233105
210	0x3f042121	0.5161305
211	0xbdb2d5e3	-0.08732202
212	0xbe048266	-0.12940368
213	0x3ed706c7	0.41997358
214	0x3f373fa4	0.7158148
215	0x3f1d49bd	0.6144064
216	0x3d4b5b3c	0.049647555
217	0xbf13fe5e	-0.5781001
218	0xbec8d4a8	-0.39224744
219	0xbeb7a680	-0.35869217
220	0xbecc59c9	-0.3991225
221	0x3de00b86	0.10939698
222	0x3f0627eb	0.5240466
223	0xbe1bdb1b	-0.15220301
224	0x3da49559	0.08036298
225	0xbde2d066	-0.11074905
226	0xbba573b2	-0.0050491923
227	0xbee43fe0	-0.44579983
228	0xbd2d2feb	-0.042282026
229	0xbdc5a078	-0.096497476
230	0xbe128cbc	-0.14311498
231	0xbd9af8ff	-0.075670235
232	0xbf1983bd	-0.5996664
233	0x3e2ff5c7	0.171836
234	0xbd613ac2	-0.054987676
235	0x3e6f8ab1	0.2339275
236	0xbea35612	-0.31901604
237	0xbdc67133	-0.0968956
238	0x3e9a545b	0.30142483
239	0x3ed7a7e6	0.42120284
240	0x3e903daf	0.2817206
241	0x3e8e7d79	0.27830103
242	0x3ea3b8ce	0.31976932
243	0x3ef0d4e5	0.47037426
244	0x3e16f6f2	0.1474264
245	0xbec0d98f	-0.37665984
246	0x3ea176e8	0.3153603
247	0xbe92c0b9	-0.2866266
248	0x3d6ef096	0.05833491
249	0xbd906357	-0.070501976
250	0xbf07cafa	-0.5304409
251	0xbf16449d	-0.58698446
252	0x3f42d288	0.76102495
253	0x3f3f188f	0.7464685
254	0x3f2eb2b3	0.68241423
255	0xbdba93ed	-0.09110246

fc1.bias f4 [128]
0	0x3ea5c4f9	0.3237684
1	0x3eb3e690	0.35136843
2	0xbe92d018	-0.28674388
3	0x3ebbe8c1	0.36701015
4	0x3e493106	0.19647607
5	0x3ed54ab5	0.4165856
6	0x3e31d75b	0.17367308
7	0x3ebcca2b	0.36872992
8	0xbdb1681c	-0.086624354
9	0xbf0d5087	-0.55201
10	0x3edb59f0	0.42842054
11	0x3ed615e9	0.4181359
12	0x3c6907f1	0.014223085
13	0xbf03d3fe	-0.5149535
14	0xbeeed6da	-0.46648294
15	0xbf1451f1	-0.5793753
16	0xbde0d302	-0.109777465
17	0xbed96ba3	-0.42464933
18	0xbefe2315	-0.4963614
19	0xbe72a27f	-0.236948
20	0xbf09cde8	-0.53829813
21	0x3efee6ef	0.49785563
22	0x3e84fa51	0.25972226
23	0xbecd7400	-0.40127563
24	0xbe0d9282	-0.1382542
25	0xbf235d37	-0.6381411
26	0x3e6208a8	0.22073615
27	0xbf1b08eb	-0.6056048
28	0x3e9a15fb	0.30094895
29	0x3f0e1fe1	0.55517393
30	0xbb051ef9	-0.002031265
31	0x3e608cd9	0.21928729
32	0x3eca4801	0.3950806
33	0x3ec72f4b	0.3890327
34	0x3ef11320	0.47084904
35	0x3df56411	0.11981977
36	0x3ee53beb	0.44772276
37	0xbec8d8b6	-0.39227837
38	0xbed7f624	-0.42179978
39	0xbebce607	-0.36894247
40	0xbd917195	-0.07101742
41	0xbf03d9bf	-0.5150413
42	0x3e855a4e	0.2604546
43	0x3ea3bd2a	0.31980258
44	0x3e1c58d8	0.15268266
45	0xbeef9c23	-0.4679881
46	0xbf10db33	-0.5658447
47	0xbedd20f2	-0.43189198
48	0xbed9ced0	-0.42540598
49	0x3e275a0f	0.16342948
50	0xbe89f097	-0.26941368
51	0x3ddc6b31	0.10762633
52	0x3e8513d3	0.25991687
53	0x3e48092b	0.19534747
54	0xbc954125	-0.01821954
55	0xbebf8472	-0.37405735
56	0xbed8ba6c	-0.4232973
57	0xbed37c5e	-0.41305822
58	0xbd8a3734	-0.067488104
59	0xbe9792b3	-0.2960411
60	0xbeb114e4	-0.3458625
61	0xbf163853	-0.58679694
62	0x3d8fafbb	0.0701594
63	0x3d07e0c0	0.033173323
64	0xbd460299	-0.04834232
65	0xbf0a5332	-0.54033196
66	0x3ed7465f	0.42045876
67	0xbe9f93fa	-0.31167585
68	0xbddb03ce	-0.10694085
69	0xbeb0f733	-0.34563598
70	0xbef24330	-0.47316885
71	0xbd8f6f6d	-0.07003675
72	0xbed36364	-0.41286767
73	0x3eaf1bf8	0.34201026
74	0xbed1ed31	-0.41001275
75	0x3e40cb8d	0.18827648
76	0xbe0d119e	-0.13776252
77	0x3d93e374	0.072211176
78	0xbea39e2d	-0.31956616
79	0x3e2806f1	0.16408898
80	0xbe920281	-0.28517535
81	0x3eadbf9a	0.33935243
82	0xbed0b2ae	-0.40761322
83	0x3eb4b84c	0.35296857
84	0xbec254b5	-0.3795525
85	0x3cbcc457	0.02304284
86	0x3e941686	0.28923434
87	0xbeb002e5	-0.34377208
88	0x3cc4f09c	0.024040513
89	0x3ec51b45	0.38497368
90	0xbed6eeac	-0.41978967
91	0xbeafc3c4	-0.34329045
92	0x3f05d711	0.5228129
93	0x3ebd6445	0.36990562
94	0x3eb0e3bb	0.34548745
95	0x3ec43eff	0.38329312
96	0x3e3e4b88	0.185835
97	0xbde4f141	-0.11178828
98	0xbe2fe966	-0.17178878
99	0x3e8837fe	0.2660522
100	0xbe6c6c64	-0.23088223
101	0xbeeeea83	-0.46663293
102	0x3e66dfae	0.22546265
103	0xbf002d52	-0.50069153
104	0x3db94fe3	0.0904844
105	0xbe30d972	-0.17270449
106	0x3e016dd7	0.12639557
107	0xbefe4e4a	-0.49669105
108	0x3e90d189	0.28284863
109	0x3e1d49bf	0.15360163
110	0x3db7707e	0.08957003
111	0xbebe7999	-0.37202147
112	0x3e747e8d	0.238764
113	0xbdfe83bf	-0.12427472
114	0x3e0ad1b6	0.13556561
115	0xbecd40c4	-0.40088475
116	0x3def9173	0.11697664
117	0x3cdb04d0	0.026735693
118	0xbe719cd3	-0.2359498
119	0xbcad3dd6	-0.02114765
120	0xbecac318	-0.3960197
121	0xbf01aec3	-0.5065729
122	0x3eb10fb1	0.34582284
123	0x3df7073b	0.12061926
124	0xbdbbd515	-0.091715015
125	0x3e99c3de	0.30032247
126	0xbcab216e	-0.020889964
127	0x3e8ebb05	0.2787706

fc2.weight f4 [2, 128]
0	0xbed21d55	-0.41038004
1	0x3e243b1c	0.16038173
2	0x3e50e068	0.20398104
3	0xbe9ad13a	-0.30237752
4	0xbe447dfc	-0.19188684
5	0x3d907289	0.07053096
6	0xbe289245	-0.16462047
7	0x3e0ca732	0.13735655
8	0xbe1f846d	-0.1557786
9	0x3add87d3	0.0016901441
10	0xbe74d135	-0.23907931
11	0x3e87e28a	0.26540023
12	0xbdc50e68	-0.096218884
13	0xbce348a8	-0.027744606
14	0x39564f34	0.00020438136
15	0x3d8487bc	0.06471202
16	0xbdc93386	-0.098242804
17	0xbce0994d	-0.02741685
18	0xbc79649b	-0.01522174
19	0xbe530202	-0.20606235
20	0xbc4c0a9e	-0.012453703
21	0x3e5b2cbd	0.21403785
22	0x3e971771	0.29510072
23	0x3c931228	0.017952994
24	0xbce05aa7	-0.027386976
25	0x3d7226eb	0.059119146
26	0x3eabcd24	0.33554947
27	0xbc00a2a4	-0.007851277
28	0x3e5e1ec2	0.2169142
29	0xbe93b66a	-0.28850108
30	0xbd02815b	-0.031861644
31	0xbdc323cc	-0.09528312
32	0x3e7f4e0f	0.2493212
33	0x3e469a79	0.19394864
34	0xbdb6d05c	-0.0892646
35	0xbe02f010	-0.12786889
36	0x3e64e11b	0.22351496
37	0x3ceadef9	0.028670775
38	0x3c2285f7	0.009919635
39	0xbbd3b368	-0.006460596
40	0xbda44578	-0.080210626
41	0x3c63937f	0.013890146
42	0x3e7dd1c0	0.24787045
43	0xbda20a1d	-0.07912085
44	0x3e95c222	0.29249674
45	0x3da43c23	0.08019283
46	0x3c3c7e4c	0.011504721
47	0x3d8464e5	0.064645566
48	0xbc96a4e4	-0.018389173
49	0x3e3cd0c5	0.18439014
50	0x3d15d7d3	0.03658278
51	0x3e88abee	0.26693672
52	0x3d667ee0	0.05627334
53	0xbe93a059	-0.28833273
54	0x3dff44cb	0.12464293
55	0xbdf91d64	-0.12163809
56	0xbca13af6	-0.019681435
57	0xbd1aff8d	-0.03784137
58	0xbe523a49	-0.20530047
59	0xbba4c41d	-0.0050282613
60	0xbda5909e	-0.08084224
61	0xbd85f8da	-0.06541605
62	0x3e89ece8	0.26938558
63	0xbedd2c80	-0.43198013
64	0xbdcf73b9	-0.10129494
65	0x3d0a05e4	0.033697024
66	0x3e014c7c	0.12626833
67	0xbe4ed868	-0.2019974
68	0xbc4ec46f	-0.012620076
69	0xbc5f214b	-0.0136187775
70	0x3ccd5de3	0.025069183
71	0xbd107bea	-0.035274424
72	0xbd190f4a	-0.037368096
73	0xbede08d4	-0.4336611
74	0xbe15a9c7	-0.14615546
75	0x3e6a83d7	0.22901855
76	0xbd991b90	-0.0747596
77	0x3da20c98	0.07912558
78	0xbda14420	-0.07874322
79	0xbe2018fd	-0.15634532
80	0xbd977cad	-0.07396827
81	0x3c6994b7	0.014256648
82	0x3cac5ad6	0.021039408
83	0xbd3fdae1	-0.0468396
84	0xbce63b59	-0.028104471
85	0xbdd9ed7a	-0.10640998
86	0x3d1c8f33	0.038222503
87	0xbd960a39	-0.073261686
88	0xbe308080	-0.17236519
89	0xbf2aaf0e	-0.6667336
90	0x3d8ec11e	0.06970428
91	0x3cf168f2	0.029468987
92	0xbea0afee	-0.31384224
93	0xbdd1e2b2	-0.10248317
94	0xbe8bdd19	-0.27317122
95	0x3e0d391b	0.13791315
96	0xbd4c9018	-0.049942106
97	0xbdec2038	-0.11529583
98	0x3df7926f	0.12088477
99	0x3d6ee4ce	0.058323674
100	0xbb4e1e31	-0.00314511
101	0xbd9d4bab	-0.07680448
102	0x3e9d44c4	0.30716527
103	0xbacb4095	-0.0015506918
104	0xbde132eb	-0.1099604
105	0xbbca649a	-0.0061765434
106	0x3aff6c2a	0.0019487191
107	0xbdaabbff	-0.08336639
108	0xbcbf567f	-0.023356674
109	0x3d99bcf4	0.07506743
110	0xba9d0617	-0.0011979964
111	0xbbb2fd9e	-0.0054623624
112	0x3e5c2b73	0.2150095
113	0xbdda50b6	-0.10659926
114	0xbe35ee7c	-0.17766756
115	0x3d203364	0.03911151
116	0x3ea0f1d7	0.3143451
117	0xbc94150f	-0.018076448
118	0xbe07cf2a	-0.1326262
119	0xbe3c9c12	-0.18418911
120	0xbe29bd42	-0.16576102
121	0x3d40f3fd	0.047107685
122	0x3e873fec	0.26415956
123	0xbe8ee86c	-0.279117
124	0xbdd5030d	-0.104009725
125	0xbe355d0d	-0.17711277
126	0xbdc4d02c	-0.09610018
127	0x3e3fccb4	0.18730432
128	0x3ed7985e	0.42108434
129	0xbe19efd3	-0.15032892
130	0xbe467794	-0.19381553
131	0x3ea2229a	0.31667024
132	0x3e11d2ba	0.14240542
133	0xbdc2947c	-0.095009774
134	0x3e1cc159	0.15308131
135	0xbe528982	-0.20560268
136	0x3e8e345a	0.27774316
137	0x3d7d2d0a	0.06181053
138	0x3e830052	0.25586182
139	0xbdf2f818	-0.118637264
140	0x3dd22061	0.10260082
141	0xbdd6c95c	-0.10487625
142	0xbda56c83	-0.080773376
143	0xbd92bfe8	-0.071655095
144	0x3db775a3	0.08957984
145	0x3ce46029	0.027877884
146	0xbdeb01da	-0.114749625
147	0x3e144e4f	0.14482997
148	0xba8d9f36	-0.0010804895
149	0xbe1b9d75	-0.15196784
150	0xbe8502d1	-0.2597871
151	0x3c55ecd6	0.013056954
152	0xbcc57e48	-0.024108067
153	0xbd063752	-0.0327676
154	0xbeb82062	-0.35962206
155	0x3d5818e5	0.052758116
156	0xbe4caca6	-0.19987735
157	0x3ec90d42	0.39267927
158	0x3df9e169	0.12201197
159	0x3e187f31	0.1489227
160	0xbe299502	-0.16560748
161	0xbdb4c295	-0.08826176
162	0x3d6947f4	0.056953385
163	0x3d245208	0.040117294
164	0xbe002953	-0.12515764
165	0xbc8adf63	-0.016952222
166	0xbc40fddb	-0.011779274
167	0x3b7b88a6	0.003838101
168	0x3d1758fe	0.036950104
169	0x3dbe4ae3	0.09291627
170	0xbe7d68b0	-0.24746966
171	0x3e3be045	0.18347271
172	0xbe513163	-0.20428996
173	0x3d8f1fbf	0.06988477
174	0xbdbb3860	-0.09141612
175	0xbd2bf6d4	-0.04198344
176	0x3d289f46	0.04116752
177	0xbe41feb9	-0.18944825
178	0x3cb736bc	0.022364967
179	0xbe5ed942	-0.21762565
180	0xbd6edb71	-0.058314744
181	0x3e8823e2	0.26589876
182	0xbe297ade	-0.16550776
183	0x3de2ee2d	0.11080585
184	0xbdbca351	-0.09210838
185	0xbdb71f70	-0.08941543
186	0x3e1e6e96	0.15471873
187	0x3d38368e	0.044973902
188	0x3e1fa146	0.15588865
189	0xbd1c0535	-0.038090903
190	0xbe8a0b7d	-0.2696189
191	0x3ef0abc3	0.47006044
192	0x3c83866e	0.016055312
193	0x3c70a32a	0.014687339
194	0xbe841b46	-0.25802058
195	0x3db7ddc0	0.08977842
196	0x3d8baa2e	0.068195686
197	0xbcca92c8	-0.024728194
198	0x3d5a4ed5	0.053297836
199	0xbcf0fa50	-0.029416233
200	0x3cf7620c	0.03019812
201	0x3eaeb83f	0.34124944
202	0x3d78ae4e	0.060713105
203	0xbe8cbaa3	-0.27486143
204	0x3cf66319	0.03007655
205	0xbdb1ae36	-0.08675806
206	0x3d328590	0.043584406
207	0x3db4a340	0.088202
208	0x3d125b60	0.035731673
209	0xbd822620	-0.06354928
210	0x3bebab1f	0.00719203
211	0x3dbd8a56	0.09254901
212	0xbc7cb865	-0.015424822
213	0xbc8a22d7	-0.016862316
214	0xbd4b34de	-0.049610965
215	0xbd6d4ad3	-0.057932686
216	0x3e41acd2	0.18913582
217	0x3f1caa8d	0.6119774
218	0xbb8fb905	-0.0043860697
219	0xbb17503a	-0.002308859
220	0x3e767861	0.24069358
221	0xbbc8bc7c	-0.0061259847
222	0x3e7df618	0.24800909
223	0xbe1aa4a0	-0.15101862
224	0x3d82808c	0.063721746
225	0x3d66f66f	0.05638736
226	0xbe357d13	-0.17723493
227	0xbe3580f3	-0.17724971
228	0xbd057ebb	-0.032591563
229	0x3dd30fd1	0.10305751
230	0xbe6d32ba	-0.23163882
231	0xbdc20f85	-0.09475616
232	0x3d9aba6e	0.0755509
233	0xbd834fb4	-0.064116865
234	0xbda9d3b0	-0.08292329
235	0x3de60f69	0.11233408
236	0xbad3d23a	-0.0016160675
237	0xbe5463ed	-0.20741244
238	0x3e01085f	0.1260085
239	0x3d978136	0.07397692
240	0xbe92032f	-0.28518054
241	0x3dca0df0	0.098659396
242	0x3e4f6d68	0.20256579
243	0x3d778dad	0.060437847
244	0xbeb5ed6f	-0.3553271
245	0x3c069082	0.008213164
246	0x3e18bdc5	0.14916141
247	0x3e317b19	0.17332114
248	0x3cd1615d	0.025559122
249	0xbc249802	-0.010046007
250	0xbe88efda	-0.26745492
251	0x3e511992	0.2041991
252	0x3dc85b10	0.09782994
253	0x3dea5046	0.11441092
254	0x3dbd1e5a	0.09234305
255	0xbdab6797	-0.083693676

fc2.bias f4 [2]
0	0xbc9807c1	-0.018558385
1	0x3dac83a2	0.084235445
